Model: "sequential"
_________________________________________________________________
Layer (type)                 Output Shape              Param #   
=================================================================
conv2d (Conv2D)              (None, 28, 28, 32)        320       
_________________________________________________________________
conv2d_1 (Conv2D)            (None, 28, 28, 64)        18496     
_________________________________________________________________
max_pooling2d (MaxPooling2D) (None, 14, 14, 64)        0         
_________________________________________________________________
conv2d_2 (Conv2D)            (None, 14, 14, 128)       73856     
_________________________________________________________________
conv2d_3 (Conv2D)            (None, 14, 14, 128)       147584    
_________________________________________________________________
max_pooling2d_1 (MaxPooling2 (None, 3, 3, 128)         0         
_________________________________________________________________
flatten (Flatten)            (None, 1152)              0         
_________________________________________________________________
dense (Dense)                (None, 128)               147584    
_________________________________________________________________
dense_1 (Dense)              (None, 10)                1290      
=================================================================
Total params: 389,130
Trainable params: 389,130
Non-trainable params: 0
_________________________________________________________________
